data.pth (torch, 8727 bytes, 6 tensors)

l1.weight f4 [8, 129]
000000 7c d5 69 3f 4a 6b 3f bd 0f cc d5 3d 8e 71 5d 3f
       0.91341376 -0.04673318 0.10439312 0.86501396
000010 4f 83 3a bd f1 b3 19 3f cc e0 ac 3d 19 30 c3 bd
       -0.045535382 0.60040194 0.08441314 -0.09530658
000020 f9 8d 70 3f f2 96 3f bf 6b 38 f9 3e 00 1a 81 be
       0.93966633 -0.748397 0.48675856 -0.2521515
000030 6e cc 9c be f9 22 f5 3e 11 0c 28 bf 44 d1 55 be
       -0.30624717 0.47878245 -0.6564341 -0.2088061
000040 5a c0 76 3f cd 20 4d 3f 6d a9 b9 be 3c d4 c4 3e
       0.96387255 0.80128175 -0.36262074 0.38443172
000050 a9 84 14 3f 49 82 0c 3f 04 73 32 bf c6 e6 20 bf
       0.58014923 0.548863 -0.6970675 -0.6285213
000060 11 0a 1c be a7 95 c0 3d 40 a8 32 3f b5 c9 26 bf
       -0.15238215 0.09403544 0.6978798 -0.6515153
000070 60 e3 72 3f b3 1f d0 3e 09 35 09 bf 5f e8 cc 3e
       0.94878197 0.40649185 -0.5359655 0.40021035
000080 2e 6c 67 3f 04 53 36 bf 7d 0d 31 3f ec 63 c0 3e
       0.90399444 -0.7122042 0.69161206 0.37576234
000090 01 3d 47 3f 73 16 0c 3f e1 a2 28 3f 95 99 48 3f
       0.7782746 0.54721755 0.65873533 0.7835935
0000a0 87 01 7c bd 52 9f 0f bf 57 1e bd 3e a6 52 20 3f
       -0.061524894 -0.5610248 0.3693721 0.6262611
0000b0 05 1a ae be 11 10 24 bf 34 46 b0 3d 71 2d 8c 3e
       -0.34004226 -0.64087015 0.0860714 0.2737842
0000c0 07 a8 66 be 43 a6 24 bf db 4b d5 3e 60 8f eb 3e
       -0.22525035 -0.64316195 0.41659436 0.46007824
0000d0 75 d0 c1 be 61 96 a4 3e ac 0c 25 bf f7 e7 e8 be
       -0.37854353 0.3214598 -0.6447246 -0.45489475
0000e0 4f b6 82 be 51 0f 20 bf 45 b3 08 bf 5e 71 10 3f
       -0.25529715 -0.6252337 -0.53398544 0.56422985
0000f0 22 5b 56 3f 90 5d 25 bf de 78 10 be 39 43 a2 3e
       0.8373281 -0.6459589 -0.14108607 0.31691912
000100 06 e0 93 3f fd b1 a1 3e 31 98 19 bc e3 22 44 3f
       1.1552742 0.31581107 -0.009374664 0.7661573
000110 3f ed 60 3f 44 d9 5c 3f 2b 05 cd be 3f 33 dd be
       0.8786201 0.8626902 -0.40043005 -0.4320316
000120 a2 47 d3 be 06 37 7d 3e 1f 6e ee 3e e1 e6 6e 3e
       -0.4126559 0.24728021 0.4656839 0.23330261
000130 a0 41 62 3f 81 e8 fd 3e f1 07 64 3e 87 08 d8 3e
       0.88381386 0.4959145 0.22268654 0.42194006
000140 25 91 30 3f 05 d0 06 3f 7c 55 ab 3e 2f 92 9a be
       0.6897147 0.5266116 0.33463657 -0.30189654
000150 9f 9f fe 3e 29 ec 3d be 7d e9 e7 be 93 58 9d 3e
       0.49731156 -0.18547119 -0.45295325 0.3073164
000160 db e2 13 3f f6 52 95 be 31 00 36 bf e9 da 16 3e
       0.5776803 -0.29164857 -0.7109404 0.14731945
000170 ec 3d a1 3e 63 53 8c be 4c 8f dc 3e 3c 3c c8 3e
       0.31492555 -0.2740737 0.43078077 0.39108455
000180 dd ca d7 3e 5c ec f4 bd 2d ed a5 3e bd f8 f5 be
       0.4214696 -0.119591445 0.32407513 -0.48041335
000190 ec e2 23 be 27 7b f6 3e 4a 0e 8c 3e b0 da 5f 3e
       -0.16004533 0.48140833 0.27354652 0.21860766
0001a0 41 95 29 3f c9 8f 3b 3f e3 f9 4a 3f 34 8f 21 bf
       0.6624337 0.73266274 0.79287547 -0.63109136
0001b0 32 c2 c2 be 01 de bc bc 60 4f 2c 3f 55 14 a6 be
       -0.38038784 -0.023055078 0.67308617 -0.32437387
0001c0 34 60 0f 3f 9e 2f 58 be 15 2f 1a 3e dc 01 c7 3e
       0.5600617 -0.21111915 0.15057023 0.38868606
0001d0 96 1f 52 be 22 8e 47 3f ef cd 71 be fc c8 68 3e
       -0.20519862 0.7795125 -0.23613714 0.2273292
0001e0 6d 54 72 3e 02 44 49 3f 02 7f c3 3e c8 4c ea 3e
       0.23665018 0.78619397 0.38182837 0.45761704
0001f0 ad 79 7d be 58 1b 83 3f 39 5f 50 3e 38 72 7b 3e
       -0.24753447 1.024272 0.20348825 0.2455529
000200 50 2b 1b 3f 5a 92 3e 3e f9 6a 2d 3f b3 c5 5e bd
       0.60612965 0.18610516 0.6774135 -0.05438776
000210 6a f8 31 3e 36 a6 f0 3e 08 aa 27 3d 53 73 ae be
       0.17379919 0.4700181 0.04093364 -0.3407236
000220 a6 aa 33 3e 0b f5 69 3f 86 9e 32 bf 58 a4 a5 bd
       0.17545566 0.9138953 -0.6977314 -0.08087987
000230 23 06 00 3f 43 55 f1 bd 2b ef 1d be ad 36 4f bc
       0.50009364 -0.117838405 -0.15423267 -0.012647313
000240 6f b9 9b bc be 00 5b 3f 8e 9d 05 bf b2 65 40 be
       -0.01900932 0.8554801 -0.52193534 -0.18788794
000250 db 88 67 3f b4 37 e6 3e 6b 1f 3b be 63 78 42 bf
       0.904432 0.44964373 -0.18273704 -0.75964946
000260 74 bf 34 bf c6 6d ea 3e 75 7c 3c 3f 7e 63 92 be
       -0.70604634 0.45786875 0.73627406 -0.28591532
000270 69 61 33 bf ef 16 9b 3e dc 18 65 3f 87 57 c1 3e
       -0.7007051 0.30290934 0.8949106 0.3776209
000280 c0 fd 21 3e 76 95 cf 3e 1c 5a 2c bf 65 f5 c4 be
       0.15819454 0.40543717 -0.67324996 -0.3846847
000290 e8 03 ec 3e ef 6d 96 3e 04 75 b0 3e 80 3a 05 3f
       0.4609673 0.29380748 0.34464276 0.5204239
0002a0 b4 39 7a be ae d5 a0 be 48 8d f5 bd 9b 53 93 3c
       -0.24436074 -0.31413025 -0.11989838 0.017984202
0002b0 06 fb 91 be 2a f9 bb be 89 61 32 bf 79 80 95 be
       -0.28511828 -0.36713535 -0.69680077 -0.2919958
0002c0 0f 6e 35 3f 74 30 60 bd e8 6f 68 be 7e 74 e0 3d
       0.7087106 -0.05473371 -0.22698939 0.10959719
0002d0 41 88 15 bf b5 86 e5 3d 5f b0 c1 be 2b 79 ce bd
       -0.5841103 0.11207334 -0.37829873 -0.10081705
0002e0 5c f9 9e be 5a 22 00 bf 9c 53 85 bb 36 c3 60 be
       -0.3104962 -0.50052416 -0.004068805 -0.21949467
0002f0 d2 f0 c8 bd 1e 9a 85 3e 44 c9 79 be 61 96 60 3d
       -0.09811558 0.26094145 -0.24393183 0.054830913
000300 32 49 18 3f 00 24 35 3f 8d dd 87 3e be ed 9e 3e
       0.5948669 0.70758057 0.26536217 0.31040758
000310 1a df 50 3f cd 1f b0 3e d8 cd 8b 3e d7 cd 19 bf
       0.81590426 0.34399262 0.27305484 -0.6007971
000320 90 86 7b 3d 1a 84 5e bf 51 97 03 bf 42 fe 9a 3e
       0.061407626 -0.8692032 -0.51402766 0.30272108
000330 15 48 6e 3e 44 1c c8 be 64 21 a1 3e 11 07 01 bf
       0.23269685 -0.39084065 0.31470788 -0.5040141
000340 28 af 1f 3e c9 08 80 be bb 4a 48 bf db 2d f6 bd
       0.1559416 -0.25006703 -0.7823903 -0.12020465
000350 7c 8f 8a be 38 db 5b bd 52 5d 32 3f b7 f3 3c bf
       -0.27062595 -0.05367586 0.69673645 -0.7380938
000360 ed 7e 3e bd 6d 7c b5 3e 5e d7 21 bf 23 40 2c bf
       -0.046507765 0.35446492 -0.6321925 -0.67285365
000370 77 ef 6c be 82 5b 23 bd 83 0a 4d 3f 28 40 c0 3e
       -0.23138224 -0.03988219 0.80094165 0.37548947
000380 50 03 ce 3e a9 80 5b 3e 3d ea 42 3f db c5 42 bf
       0.40236902 0.21435799 0.7613867 -0.76083153
000390 19 0f a2 be 2f 2d 83 3c 9b 86 0a bd 96 dd af be
       -0.31652144 0.016012756 -0.033819776 -0.34348744
0003a0 12 eb 61 3e 78 36 ad be 8e 07 9f 3d 21 61 48 3f
       0.22062328 -0.3383062 0.07765113 0.78273207
0003b0 b9 eb 27 be 03 34 8b be a6 9a 96 3d a2 ee d3 3e
       -0.16398515 -0.2718812 0.073537156 0.41393
0003c0 a1 91 4f be 18 da 08 3f 35 61 6b be 1a d3 09 3f
       -0.20270397 0.53457785 -0.229863 0.5383774
0003d0 11 d0 83 be 1f 7c 05 be 11 30 d2 3e 13 74 2f 3f
       -0.2574468 -0.1303563 0.41052297 0.6853649
0003e0 12 28 0b 3f 67 11 41 3e c1 62 02 3f 78 7e ab 3d
       0.5435802 0.18854295 0.50931937 0.083737314
0003f0 99 f4 42 bf 93 cd 9e be 85 5e 62 3f a0 20 c4 be
       -0.76154476 -0.31016216 0.88425475 -0.3830614

l1.bias f4 [8]
000000 d6 7f 8d 3f 18 d3 42 3f 2f 23 49 3f 4c 1a 89 3f
       1.1054637 0.76103354 0.7856931 1.071115
000010 e2 4d 30 3f 76 ab 82 3f 04 8b 48 3f 7d 02 52 3f
       0.6886884 1.0208576 0.7833712 0.82035047

l2.weight f4 [8, 8]
000000 89 e0 bc 3f 38 06 e5 3f ca 8c 7b 3f 19 ab 43 3f
       1.4756023 1.7892523 0.982617 0.7643295
000010 2c e6 b0 3e 90 35 e1 bf c4 75 0a 40 3a c1 e2 be
       0.34550607 -1.7594471 2.1634378 -0.44288045
000020 45 0e 3d 3f ce 47 2b bf 7b 79 fc bf cb d7 8b 3f
       0.738499 -0.6690644 -1.9724573 1.092523
000030 1e 6a cd 3f ce 5c 7d 3f db a0 88 3f 82 c9 ad 3f
       1.6048009 0.98969734 1.0674089 1.357712
000040 58 8f 90 3f f8 88 e3 3f 10 03 ce 3e 7c 94 a6 be
       1.1293745 1.7776175 0.40236712 -0.3253516
000050 db 72 8d bf cb eb 56 bd bb ce 0c c0 5e f9 c4 3f
       -1.1050676 -0.052470963 -2.2001178 1.5388601
000060 78 27 83 bf 33 07 c8 bf 9f 71 58 3f 03 9c e5 3f
       -1.024642 -1.5627197 0.8454837 1.7938236
000070 1f 8b 85 3f 9a 96 f6 3f 08 16 78 3f fe 7a 94 3e
       1.0433081 1.926471 0.96908617 0.29000086
000080 41 c2 b5 3f ff 67 9f 3f 64 25 14 40 c0 8f 59 3e
       1.4199907 1.2453612 2.3147821 0.21246243
000090 9a 60 bb bf 5e 01 95 3e 94 df 43 bf 43 c0 85 bf
       -1.4638855 0.29102606 -0.7651303 -1.0449299
0000a0 30 a9 e3 3f 28 4e 0d bf 8d b2 89 bf a4 7a 01 40
       1.7786007 -0.5519738 -1.0757614 2.0231104
0000b0 51 da 84 bf c7 f0 dc 3f 06 53 4f bf e1 61 cb 3e
       -1.0379125 1.726098 -0.8098606 0.39723113
0000c0 20 a8 f4 be 1c 13 6b 3f 3c ca af 3f d5 64 ae bf
       -0.4778452 0.91826034 1.3733592 -1.3624521
0000d0 51 17 e7 3f 22 72 9e 3f 0f 64 ec be 5f f3 09 40
       1.8053991 1.237858 -0.4617009 2.1554792
0000e0 23 21 aa 3e 74 da d3 bf 74 ed d8 3d ad 1f 36 3f
       0.33228406 -1.6551042 0.105921656 0.71142083
0000f0 66 56 7e be b5 8f 83 3e e4 ba 0d 3e db 5e d5 3e
       -0.24837646 0.25695577 0.13840824 0.4167393

l2.bias f4 [8]
000000 7a c5 cf 3e b6 ef 1d 3f bd b5 32 3f 5e fd 68 3f
       0.4058035 0.61693895 0.6980856 0.9101161
000010 56 3c 6e 3f 93 f5 29 3f c6 c5 df 3e 5f 0e 02 bf
       0.93060815 0.6639034 0.43705577 -0.5080318

l3.weight f4 [16, 8]
000000 50 fb 01 3f d6 65 dd bf 87 1f f0 3e 3e 31 fb bf
       0.507741 -1.7296703 0.46899053 -1.9624403
000010 35 ff 49 3f 31 64 4d bf a7 2d 95 bf 2b ab 5d c0
       0.7890504 -0.80231005 -1.1654557 -3.4635723
000020 87 89 83 be 7f b9 c4 3d e4 e3 2f bf 74 7c 6a 3e
       -0.25690863 0.09605693 -0.6870711 0.22899038
000030 5b fa e2 bd 9d 0f 7b 3e 2a e8 c6 be ea aa 68 c0
       -0.11082908 0.24517675 -0.38849002 -3.6354318
000040 78 45 1e bf d8 d4 a2 3c 83 75 70 3f 8c 14 1c bf
       -0.6182475 0.019876882 0.9392931 -0.6096885
000050 42 fd 0a 3f 90 36 42 3f 16 e6 54 c0 4e a9 51 c0
       0.5429269 0.75864506 -3.3265433 -3.2759585
000060 7b 85 84 bf fd a0 d9 be 80 09 d0 bf 78 d7 ed 3e
       -1.0353235 -0.42505637 -1.6252899 0.46453452
000070 cd e2 02 3f b0 b5 30 3f 09 e8 0d c0 b1 e6 87 3f
       0.5112732 0.69027233 -2.2172873 1.0617276
000080 7a 38 5b bf 68 42 1f 3f 69 41 11 3f e0 da d6 bf
       -0.8563305 0.622107 0.5674043 -1.6785545
000090 dd 80 b8 bf 86 a6 36 bf e0 46 0b 3f 7a 8e ef bf
       -1.4414326 -0.71347845 0.5440502 -1.8715355
0000a0 5c d8 30 c0 23 19 54 3d 34 fb a2 3d 0c 6f 94 3e
       -2.7632055 0.051781785 0.079580694 0.28990972
0000b0 d9 fd e2 be ab 01 46 bf 5e de 61 3f 7e 79 21 c0
       -0.44334295 -0.77346295 0.8822993 -2.5230403
0000c0 c4 c9 d5 3e 01 c5 bd 3d e6 eb f8 bf 33 ed 0f 3f
       0.41755497 0.09266091 -1.944699 0.5622131
0000d0 0b 1c 43 3b 24 ff 0c c0 90 15 a6 bf 6f 20 5f 3f
       0.0029771354 -2.2030725 -1.297533 0.87158865
0000e0 fc 71 26 c0 47 53 01 3f f3 98 a7 bf a2 ea 5a 3f
       -2.600707 0.50517696 -1.3093551 0.8551427
0000f0 39 57 00 c0 98 1f 8e 3e 20 b4 85 be 70 1a b1 3f
       -2.0053236 0.2775848 -0.26113987 1.3836193
000100 a2 14 fa 3e ff c8 80 3d e7 2c 36 bf 26 ad cd bf
       0.48843867 0.06288337 -0.71162266 -1.6068466
000110 51 bd 1b 3d 58 7f 41 3e 03 d2 d2 bf 3c 44 31 c0
       0.038022343 0.18896234 -1.647034 -2.7697897
000120 be 7e 74 bf df d9 88 bf 18 e4 23 3f 2d 1b 77 bf
       -0.95505893 -1.0691489 0.6401992 -0.9652584
000130 9f d7 3b 3f 57 55 34 3d 72 3a 9d be 64 9d 84 3d
       0.73375887 0.0440267 -0.30708653 0.064753324
000140 98 2a ea bf 88 ef bc 3e 61 9d 65 3f cd 75 e9 be
       -1.8294249 0.36901498 0.89693266 -0.45597687
000150 02 b6 94 bf cb f7 57 3f 39 9d 67 bf 78 60 ca 3f
       -1.1618044 0.8436248 -0.9047428 1.581069
000160 d2 29 01 be 52 79 33 3f da 0e ac bf 47 71 a6 3e
       -0.1261361 0.70106995 -1.3442032 0.325083
000170 88 36 fb bf f2 cb bb 3e b8 05 19 c0 4a 77 2c 3f
       -1.9626017 0.36679035 -2.390974 0.6736952
000180 b9 7e ce be 9f 5e da bf e8 78 8a 3f 56 a0 ca bf
       -0.40331057 -1.7060126 1.0818148 -1.5830181
000190 40 44 44 3e 8f b1 03 c0 57 0d 9a 3e 5d 43 3f c0
       0.1916666 -2.0577123 0.30088302 -2.9884865
0001a0 6b 0b ad 3e 54 59 60 be e8 9e 64 bd 1c 41 d1 be
       0.33797774 -0.21909076 -0.055815607 -0.40869987
0001b0 f1 0f e8 be 25 84 25 c0 3f 42 b5 3e d2 54 b4 bf
       -0.45324662 -2.5861905 0.35402104 -1.4088385
0001c0 04 29 eb 3d 88 3c be bf 6a 89 b4 be b2 ab ae be
       0.114824325 -1.4862223 -0.3526109 -0.34115368
0001d0 20 32 3a 3f c3 d5 6e bd af 55 29 c0 b4 6e 8e 3f
       0.72732735 -0.058309328 -2.6458547 1.1127534
0001e0 64 af 0d bf 5c ae 2c 3f 82 13 d7 bf 43 0e 5f 3e
       -0.5534575 0.6745355 -1.6802828 0.21782784
0001f0 e1 29 fb bf 00 ed e1 bf 16 3b fb 3e 96 8c 1e 3f
       -1.9622155 -1.7650452 0.49068516 0.6193327

l3.bias f4 [16]
000000 00 79 b0 3e 02 81 c1 3e 0d b6 dd 3c d6 9f bb be
       0.34467316 0.37793738 0.027064348 -0.36645383
000010 b4 62 f7 3d 06 ed e4 3e 37 78 6e be 28 54 73 bc
       0.12079373 0.44712085 -0.23288046 -0.014851607
000020 a3 ee 0e bf da 98 ed 3c 70 78 56 be 8b aa 19 be
       -0.5583288 0.02900355 -0.20944381 -0.15006463
000030 bf 82 d6 be d0 76 18 bd c7 b3 43 be 87 e4 21 be
       -0.41896626 -0.037222683 -0.19111548 -0.15809833
